model/keypoint_classifier/keypoint_classifier.tflite (tflite, 6752 bytes, 6 tensors)

sequential/dense/BiasAdd/ReadVariableOp f4 [20]
000000 e5 26 1f bd f9 85 54 be 69 83 19 3e e9 ce a8 bd
       -0.038855452 -0.20754232 0.14991535 -0.0824259
000010 3d 66 1c be 0b d5 ba 3d 9b f8 88 be 21 38 a5 3e
       -0.15273376 0.09122666 -0.2675217 0.32269385
000020 d5 11 a6 be 50 9a 72 3e 27 59 4a 3d 98 f6 38 3e
       -0.3243548 0.23691678 0.04940143 0.18062818
000030 65 5e 2e 3e 14 6f 55 be 31 34 36 3e 23 69 4c 3d
       0.17028196 -0.20843154 0.17793347 0.049904954
000040 27 e7 00 be d6 47 9d be c5 29 c3 3e f5 cd c7 be
       -0.12588178 -0.3071887 0.38117805 -0.3902432

sequential/dense_2/BiasAdd/ReadVariableOp f4 [10]
000000 6a 90 ed 3e fd f6 14 be 25 d4 32 bf a6 7a d0 3d
       0.46399242 -0.14547344 -0.69854957 0.10179643
000010 fa 07 76 3e 7d 08 5c 3e dd c7 26 3d cd ba 56 be
       0.2402648 0.21487613 0.04071795 -0.20969696
000020 46 10 b9 3e b6 b6 f2 be
       0.36145228 -0.47405022

sequential/dense_1/BiasAdd/ReadVariableOp f4 [10]
000000 97 a6 31 3f 1a d9 07 3f 25 a7 57 3f a9 a3 a4 bd
       0.6939482 0.53065646 0.8423942 -0.08039028
000010 62 db 76 be ce b7 70 3e 0f 3b 95 be b6 7d 8d be
       -0.24107125 0.23507616 -0.2914662 -0.27634972
000020 32 76 d2 bd 66 96 1b bc
       -0.1027645 -0.009496307

sequential/dense/MatMul f4 [20, 42]
000000 c8 ff cc 3d 3e 74 7f be da d6 5f be ce 43 cf be
       0.10009724 -0.24946687 -0.21859303 -0.40481418
000010 8d 5c 85 bd 36 c8 15 bf 0d 61 22 be d3 27 8c bf
       -0.06511793 -0.5850862 -0.15857334 -1.0949653
000020 7b 5f c4 3a 21 8b 87 bf df 3f 84 3d eb 30 ee bc
       0.0014982069 -1.0589334 0.06457495 -0.02907606
000030 fe ce 18 bb 0c 5b f9 bd fa 26 ad bd 3e ef 99 3d
       -0.0023316736 -0.12175569 -0.084547 0.07516335
000040 db 17 40 3d 01 08 87 3d dc 7c f1 3c 3b 1e 30 bd
       0.04689775 0.065933235 0.029478483 -0.04299758
000050 92 93 64 3d 0a f1 6a bc a7 e7 1a 3e 2a 95 91 3e
       0.055804797 -0.014339695 0.15127431 0.28434116
000060 d1 e6 29 3e a6 27 9c 3e d8 73 02 3e 9d dd 02 bd
       0.16591956 0.30499 0.12739503 -0.03194963
000070 d8 95 15 3d ab 8e a2 bc 4e e7 85 3c b0 88 8f 3e
       0.036519855 -0.01984342 0.016345646 0.28033972
000080 9a 09 90 bd b2 c3 9c 3e fd 8e 65 3e e0 99 56 be
       -0.07033081 0.30618054 0.22417827 -0.20957136
000090 f1 9b 94 3e ea d8 7b bd 82 11 ca 3c c4 d5 08 3e
       0.29025224 -0.061486162 0.024666552 0.13362795
0000a0 70 ce 31 be 14 cf e3 3d 94 d7 59 3e d0 79 a7 3c
       -0.17363906 0.111234814 0.21273643 0.020443827
0000b0 0a b6 03 bd 14 96 4c ba f3 22 ef bd 05 3d d3 bb
       -0.032156028 -0.0007804346 -0.11676588 -0.006446483
0000c0 f1 3e 16 be 6b fb bc be 93 b9 eb bd bb de e9 be
       -0.14672448 -0.36910567 -0.11510005 -0.45677742
0000d0 d7 bb d9 3d f1 ec ac be a9 82 d4 3d 61 a3 96 be
       0.10631531 -0.33774522 0.10376484 -0.29421523
0000e0 ae 55 84 bc 34 52 14 be e8 a1 e5 bd 8c 83 a1 bd
       -0.016154137 -0.14484483 -0.11212522 -0.07886419
0000f0 f3 8c e8 3e a6 76 db be 35 ed ee bd 17 58 00 bd
       0.45420036 -0.4286396 -0.116663374 -0.03133401
000100 f9 f7 84 bd be 9b c7 3e d5 f1 07 bd 62 59 c7 3e
       -0.064926095 0.3898601 -0.033189613 0.3893538
000110 00 dc a1 3d 66 d1 b0 be 44 5e 1a 3e 88 4c 5e 3d
       0.0790329 -0.34534758 0.15075022 0.054272205
000120 50 13 f2 3c e9 c8 8a 3e 7a 37 fb 3d 0a 91 e9 3e
       0.029550225 0.27106407 0.12266441 0.4561847
000130 55 aa ab 3e dc d2 35 bf 33 39 e6 3d fd 54 a8 bd
       0.3352839 -0.7102487 0.11241379 -0.08219335
000140 9f 76 67 bd 87 48 38 bc 87 e5 92 3c 51 08 0d 3e
       -0.05650961 -0.011247761 0.017931713 0.13772704
000150 b8 d2 d3 3d 95 6b 33 be 91 da 84 bd b8 78 90 be
       0.10342926 -0.17521508 -0.06487001 -0.282171
000160 06 a3 b7 be a6 4c b5 bd 6c 74 d6 bd 66 58 68 3d
       -0.35866565 -0.0885251 -0.104714245 0.05672493
000170 97 0c c9 be 8b ea e5 3d 1b ed 4e bd 7b fc 25 bd
       -0.39267418 0.11226376 -0.05051909 -0.040523987
000180 13 5a 0d be 4d 34 a9 3b 3d 1a 90 be ce f7 1a be
       -0.13803892 0.0051637054 -0.28145018 -0.15133592
000190 7b b3 d6 be 1b 1a a2 be 50 e8 28 be 01 05 81 3d
       -0.41933808 -0.31660542 -0.1649487 0.062997825
0001a0 34 42 16 bf 72 f1 00 3e bf 35 c4 be 79 29 59 3e
       -0.5869477 0.12592104 -0.38322255 0.21207227
0001b0 a2 6a 13 be 59 c0 dd 3c b6 35 2b bf 10 c0 43 3e
       -0.14396146 0.027069258 -0.6687883 0.19116235
0001c0 ba 54 ec be 81 73 37 3e b5 89 98 be e2 56 30 3e
       -0.4615839 0.17915155 -0.29792562 0.17220643
0001d0 f8 9d 25 be 25 48 7e 3e 2f f0 d0 be e1 17 6a 3e
       -0.16173542 0.24832208 -0.40808246 0.22860672
0001e0 b8 f6 be be 09 68 68 3e 63 fb 09 bf f4 0a a5 3e
       -0.37297606 0.22695936 -0.5389921 0.3223492
0001f0 be 44 47 bf 80 ee 9d 3e b8 a1 d1 3d 44 b3 8d 3e
       -0.7783927 0.30846024 0.102359235 0.2767583
000200 52 3b 8d 3c e2 15 dd bd ed 47 0b bd a7 61 b2 bc
       0.0172402 -0.107951894 -0.03400414 -0.02177508
000210 b6 fd 8c 3e 32 d2 06 bf 90 c1 31 3e 86 cb 8b be
       0.27537316 -0.5266448 0.17358994 -0.27303714
000220 9d 8c a3 be 61 a4 26 be 7b c7 07 be 44 16 31 3e
       -0.31943217 -0.16273643 -0.1325969 0.1729365
000230 1c 14 7a be 5a a3 bd 3c 1c 58 ff bd 09 4c 31 3e
       -0.24421734 0.023149181 -0.124679774 0.17314161
000240 4a ac 02 be 3f a3 73 3e ca 9e 3a 3d 19 b9 9b 3d
       -0.12761036 0.23792742 0.04556159 0.07603664
000250 68 13 53 bd 29 a3 d1 3d ff ae 58 be cf 23 ea 3e
       -0.05153218 0.102361985 -0.21160506 0.45730445
000260 54 f0 b8 be 26 5d 8a 3c 6f a2 93 3d 91 1b e2 3e
       -0.36120856 0.01689012 0.07208716 0.44161656
000270 90 eb 9f bd 02 67 44 3d db 57 ba 3e c4 96 0a be
       -0.07808602 0.0479498 0.36395153 -0.13534075
000280 de 59 2b bb e4 ed c2 3e 56 c0 b5 bd fa 41 47 3f
       -0.0026146094 0.3807212 -0.08874576 0.7783505
000290 d2 db dd 3e 41 1a 76 3e ee c0 13 3f 57 26 30 3f
       0.43331772 0.24033453 0.5771626 0.688085
0002a0 d6 ee 37 3e e0 7b f1 bc f9 75 0c 3d a0 d6 6e 3f
       0.17962202 -0.029478014 0.034292195 0.9329624
0002b0 49 a7 aa bd f0 8d 4e 3f 3d c8 96 bc 60 4f 01 3f
       -0.08332688 0.8068533 -0.018406028 0.5051174
0002c0 95 14 bc 3c 8a a5 1c 3f 9a 8a c7 3d 2d d0 48 3e
       0.022959033 0.6119009 0.09743233 0.19610663
0002d0 26 7c a4 3a 7e 3d a9 bd 97 cd b9 3c dc df 23 be
       0.0012549206 -0.08263682 0.02268104 -0.16003364
0002e0 cf 46 74 3e 1a 85 46 3d 63 aa 2c bd dc 46 ae bd
       0.23855136 0.04846678 -0.04215468 -0.08509609
0002f0 c9 58 93 bd a7 d4 2a be 94 d7 48 3d ce 86 1b bf
       -0.07194669 -0.16682683 0.049033716 -0.6075257
000300 21 3d a1 3e a5 14 7e be c1 af a4 3d 46 b6 c4 3d
       0.3149195 -0.24812563 0.08041335 0.096050784
000310 f8 4e f2 3d d3 93 9a be b0 ae f3 bd 3d c4 21 bf
       0.11831468 -0.30190906 -0.11898553 -0.6319006
000320 83 1e 17 bd 5d aa 4a bf 66 2e 85 3e 32 d4 92 3d
       -0.036894333 -0.79166204 0.26011962 0.07169379
000330 b8 c0 82 bd ce a1 36 be 1b ab 49 bd fe 63 f2 be
       -0.063844144 -0.17835161 -0.049235445 -0.47341913
000340 9c 86 90 be d1 38 d4 bd a0 11 2b bc 7a 96 96 3e
       -0.282277 -0.10362399 -0.010441214 0.2941168
000350 3c a8 0d 3f e5 1b 17 bf 30 7a 9e bd ee c8 16 bf
       0.5533483 -0.5902694 -0.07738149 -0.58900344
000360 37 b1 3b 3e de d9 15 be bf d1 06 be 32 e9 cd be
       0.18329321 -0.14633891 -0.1316595 -0.40216976
000370 a9 36 bc bc 26 e2 73 3d 1c 4c 62 bd aa 93 a4 3e
       -0.022975283 0.059541844 -0.055248365 0.3214391
000380 dd b5 d8 3d 15 cc de 3c ed 21 40 3e 9b ef 2d bd
       0.10581563 0.027196923 0.18762942 -0.042464834
000390 ef 14 e3 3c 33 b9 6c 3e 75 57 4f bd 0b 5c 5c 3d
       0.027719943 0.23117523 -0.050620515 0.053798717
0003a0 5b ef 80 be a5 9b d3 3e af 34 2e be 67 17 3f 3e
       -0.25182614 0.41329685 -0.17012285 0.18661271
0003b0 c3 ab 88 be 39 23 34 3f 68 e2 62 bd 84 b6 e9 3e
       -0.26693544 0.70366246 -0.0553917 0.4564706
0003c0 0c 77 90 bd 53 e2 d1 3e a3 ca 0c be 09 32 89 3e
       -0.070539564 0.40992984 -0.13749175 0.26795986
0003d0 5f 99 d8 be 42 37 45 3f 85 26 74 be 95 7c 17 3f
       -0.42304513 0.7703744 -0.23842819 0.5917447
0003e0 bd b2 23 bf 1a 32 2b 3f 00 5a f7 be 26 b4 b0 3e
       -0.6394461 0.66873324 -0.48310852 0.34512442
0003f0 d0 bb 75 3e 90 cd aa 3d 0f ce 40 3d 42 eb 09 3f
       0.23997426 0.08339989 0.047071513 0.538746

sequential/dense_1/MatMul f4 [10, 20]
000000 3b ae 36 3f d5 3f 78 3f 9a 6b 6f 3e a6 d1 44 bf
       0.71359605 0.969724 0.2338089 -0.768824
000010 4d 42 7f 3e ca cb 16 be 31 86 8e 3d 33 fe 1e 3f
       0.24927635 -0.14726177 0.06959189 0.6210663
000020 7d 3f 91 be 52 53 34 bf e7 7e 82 be 3d 98 68 3e
       -0.2836875 -0.70439637 -0.25487444 0.22714324
000030 c7 30 7c be 93 63 21 3e 4b b8 e5 3e 65 66 2b 3e
       -0.24627982 0.15760641 0.44867167 0.16738279
000040 b6 22 b3 be 10 61 a5 3c 39 c6 ad bd c3 35 80 3e
       -0.3498742 0.020187885 -0.084850736 0.25041017
000050 eb 44 7a be c0 fd a4 be 46 dd 45 3f 43 c3 a6 be
       -0.24440353 -0.32224846 0.7729076 -0.32570848
000060 d4 bb 1a 3d 02 77 f9 3e 60 9b dc 3d 85 54 49 be
       0.037776783 0.48723608 0.10771823 -0.19661148
000070 b6 be 13 3f f9 63 41 3e 3d a6 27 be 84 0a 04 3f
       0.57712877 0.18885793 -0.16372009 0.51578546
000080 cf ac 29 3f 0f 94 83 3e ec 5b 22 3e ca 3e 9c 3e
       0.6627931 0.25698897 0.15855378 0.30516654
000090 8a 23 64 3e 6f d9 46 bd 48 02 31 3f 4c c0 17 3d
       0.22279182 -0.048547205 0.69144106 0.037048623
0000a0 ae b9 cc 3d 77 4a 4f bc bf 73 dc 3c 43 42 15 3e
       0.09996353 -0.012652031 0.02691066 0.14576058
0000b0 d7 3b 22 3f d9 c3 f2 be f7 ac bb 3e a2 5f 49 3f
       0.6337256 -0.47415045 0.366554 0.7866155
0000c0 9d a3 df be 6a 7a 34 bf 47 01 7e 3f 62 c5 23 bf
       -0.43679515 -0.7049929 0.992207 -0.6397306
0000d0 fe bf fa be fa 1f 04 bf be 68 ec 3d 44 3b 69 bf
       -0.48974603 -0.5161129 0.115434155 -0.9110606
0000e0 c2 6d 2e bf e1 27 28 3f 8f 8c 07 bf 86 51 31 bf
       -0.6813623 0.6568585 -0.5294885 -0.6926502
0000f0 67 d5 ae bc e4 39 b1 bd 49 f7 83 3f fc 23 01 3f
       -0.021341993 -0.0865362 1.030984 0.5044553
000100 ec 9b a6 3d d8 9c 04 3f c2 1b 54 bd 7a 39 57 3f
       0.081352085 0.51801825 -0.051784284 0.8407208
000110 76 17 10 3f f0 64 f9 3e a5 72 14 3e ea 4e dc 3e
       0.562858 0.48709822 0.14496858 0.43028957
000120 f3 e9 c0 3e 75 d2 86 3f 6b 39 92 3f da 48 3d 3f
       0.3767849 1.0532976 1.1423773 0.7393929
000130 57 6c 58 3f d4 22 b5 3c 82 35 ac 3e 76 92 68 3f
       0.84540313 0.022111334 0.33634573 0.9084848
000140 34 db c3 3e ca 58 59 3d 26 9e 09 3f ed 9a 5f 3f
       0.38253176 0.05306319 0.5375694 0.87345773
000150 ad 27 63 bf 59 61 7e 3e 95 8a 86 bf 45 ed ac be
       -0.88732415 0.24841823 -1.0511042 -0.33774772
000160 71 80 77 3e 3c 05 5b 3f 1f c4 47 3e 51 5b d2 3e
       0.2417009 0.8555486 0.19508408 0.41085294
000170 30 5e 39 bd 7f 08 95 3e 09 fc 00 3f ee 74 f8 3e
       -0.04525584 0.29108045 0.50384575 0.4852671
000180 3d 0c d3 bc 6b 40 9a be 41 bb 12 3f c1 90 e5 3e
       -0.025762672 -0.30127272 0.57316977 0.44837
000190 46 20 19 3d 5a 31 98 3d a9 3c 0a 3f ca c2 d7 be
       0.037384294 0.07431288 0.5399881 -0.421408
0001a0 e7 d8 85 3e 01 ef 35 bf 67 6f c1 3e de 68 fd 3e
       0.26142046 -0.71067816 0.37780306 0.4949407
0001b0 d0 d9 a1 3e 48 14 1f bf 47 2a 0d bf b2 7e 85 be
       0.3161149 -0.6214032 -0.55142635 -0.26073223
0001c0 eb f2 f7 be 8f ba 17 3e 12 72 1f 3e 5d e0 9b 3d
       -0.4842752 0.1481726 0.15570858 0.07611153
0001d0 5b 77 fe bc 23 f6 b1 be 95 95 40 bf 9b 7e 2e 3d
       -0.031062772 -0.347581 -0.75228244 0.04260121
0001e0 f2 52 8c 3f c8 3b d9 be 71 a9 5b 3e b4 aa 4a be
       1.0962813 -0.42428422 0.21451356 -0.1979168
0001f0 45 3e 5e bd cd 90 ba 3e 07 12 9b be 52 75 8f be
       -0.054258604 0.364386 -0.3028719 -0.28019196
000200 66 3e 2b 3e 81 3e eb be fe 10 93 bd 73 5b 95 bd
       0.16723022 -0.45946124 -0.071809754 -0.07292833
000210 8d 9d de be a2 67 10 be 7e fc 1d bf 68 57 01 bf
       -0.43479577 -0.14102033 -0.617134 -0.50523996
000220 07 32 02 bf f1 8c 96 3d c6 ad 09 3f 0c de 9d be
       -0.50857586 0.07351101 0.5378078 -0.3083347
000230 8b 72 9c 3b 35 eb 02 3d d8 57 b0 3d 16 61 1e 3e
       0.004774397 0.031962592 0.08610505 0.15466723
000240 4a cf c9 3e 64 af db 3e a5 6c 9f bd 83 56 8c be
       0.39415962 0.4290725 -0.07784394 -0.27409753
000250 a0 2d ad 3d fd 6a 05 3f 0a b4 10 3e 6e 78 cd 3e
       0.08455968 0.52116376 0.1413118 0.40130943
000260 4d 51 d4 be f9 b7 ee bc f4 07 71 bd ae 33 ab be
       -0.41468278 -0.02914046 -0.058845475 -0.33437866
000270 9a dc 8f bd 79 2a 24 3f 84 a9 92 be 92 45 e7 3e
       -0.07024498 0.6412731 -0.28644955 0.45170265
000280 8c 7c 61 bd 44 b7 1b 3d 33 a7 e2 3e 3e 45 64 be
       -0.055050418 0.038016573 0.44268188 -0.22292039
000290 e7 23 f6 3e 23 41 d4 be 94 bc 2b 3f 9f fd 05 be
       0.48074266 -0.41455945 0.6708462 -0.1308503
0002a0 a4 58 c8 3e 17 83 20 bf 8a 12 92 3f 70 d5 bf be
       0.39130127 -0.6270003 1.1411908 -0.37467527
0002b0 b4 89 b0 bd d1 62 07 3e 5b 6f 3c 3d b6 84 7d 3e
       -0.08620015 0.13221289 0.046004634 0.24757656
0002c0 f9 e8 b0 3e a8 12 67 3f f3 d5 13 be 61 21 c6 3e
       0.34552744 0.9026284 -0.14437084 0.3869734
0002d0 bc 21 8b 3e 7b 1e 91 bd 93 ce 81 3e f1 85 24 3f
       0.27174175 -0.07085892 0.25352916 0.6426688
0002e0 1e 0e b0 3d a0 c8 21 3f 0a e3 8f 3e d5 70 72 3f
       0.08596443 0.63196754 0.28102905 0.9470342
0002f0 e1 37 a5 be 19 ce 81 3f f8 0a e1 bd 56 28 20 3f
       -0.32269195 1.0141021 -0.1098842 0.6256155
000300 de 9f 40 3f f6 3a 4c be f0 44 5a bb a7 35 0d 3d
       0.7524394 -0.19944367 -0.003330525 0.034474995
000310 30 0c eb 3e 50 28 9d 3e ec 6b cf 3e 31 81 0e 3e
       0.45907736 0.30694818 0.40512025 0.1391647

sequential/dense_2/MatMul f4 [10, 10]
000000 2d c8 5d 3f c6 52 87 be 88 5d 6e be 02 f1 3e bf
       0.8663357 -0.2643034 -0.23277867 -0.745865
000010 d3 d3 30 be 6f fa 18 3e 19 bd 0b 3f e5 db 11 bf
       -0.17268305 0.14939283 0.54585415 -0.5697616
000020 32 b6 2a bf bb 4e f3 be d1 31 ad be d2 78 99 bf
       -0.6668426 -0.47521004 -0.3382707 -1.1989996
000030 55 99 1c 3f 34 c4 9c be 72 56 d1 be 00 8e 8b 3c
       0.61171466 -0.3061844 -0.40886265 0.017035484
000040 fb 6c 0c bf c5 e4 5e be 1e cf 7e 3e da ab 91 3e
       -0.5485379 -0.21766956 0.24883696 0.28451425
000050 fa 79 ae be 9d 1a 25 bf d3 36 f1 be e0 17 0c 3f
       -0.34077436 -0.64493734 -0.4711214 0.5472393
000060 e4 3e 9f be 61 19 f4 3e 87 1b 33 bf 72 5b 15 3f
       -0.3110267 0.47675613 -0.6996388 0.5834266
000070 4e db 40 3f 8e b4 73 bd f2 39 00 3f 13 f8 02 bf
       0.7533463 -0.059498362 0.5008842 -0.5115978
000080 1f 3d 87 3d d8 a4 2a 3d 2d d7 2e bf 4f 96 63 3f
       0.06603455 0.041661114 -0.6829708 0.8890123
000090 d5 ea 17 bf d0 44 40 bf 5a e1 04 bf ff 70 10 3d
       -0.593427 -0.75105 -0.5190636 0.03526401
0000a0 84 69 da 3e 64 ea 69 bf 3e 31 20 3e 66 0f ab bf
       0.42658627 -0.91373277 0.15643784 -1.3364074
0000b0 d7 e7 da be 61 a8 4a 3e d7 1d 6c bd 8a a2 9a 3e
       -0.42755005 0.19790794 -0.057645645 0.30202132
0000c0 bb 0a 8c 3e 3a 9a 1d bd 85 f5 6d bf 40 9e b3 3e
       0.27351937 -0.03847716 -0.9295276 0.35081673
0000d0 88 3b 1b 3f ce dd 7f bf 3a bb 8b be 8b cf 8b 3c
       0.6063771 -0.9994782 -0.2729128 0.017066738
0000e0 3d ab 9c be f4 46 ec 3e 46 43 9e 3e 50 3c 33 bf
       -0.30599394 0.46147883 0.309107 -0.70013905
0000f0 c2 09 26 3f bf 41 29 3d 7e 27 a2 bf ad be 89 3e
       0.6485864 0.041322466 -1.2668302 0.26903287
000100 11 e7 8d be b1 c4 19 3f c4 06 79 be b1 99 4d bf
       -0.27715352 0.6006575 -0.24318987 -0.8031264
000110 45 a1 b4 3c 62 e4 aa be ca 4e ba 3c 0d 5f 51 3f
       0.022049556 -0.33377367 0.022742648 0.8178566
000120 0d cd a6 bf d2 6b b9 3e b1 f0 44 bd 49 8b 14 bf
       -1.3031327 0.36215073 -0.048081104 -0.5802503
000130 f3 1d 0c bf e7 77 2d 3d 47 ef df be af 3b ea 3e
       -0.547332 0.042350676 -0.43737242 0.4574866
000140 6b 58 13 3f d5 67 9b bf d5 32 c4 3d cb e2 c0 bf
       0.5755679 -1.2141062 0.09580008 -1.5069212
000150 8f 18 7f bf 1d 99 c1 be 54 fb 34 3e bb 6c 8e 3c
       -0.9964685 -0.3781213 0.17673999 0.017385831
000160 ca 2e 2f 3e c1 ec 12 3f d0 53 1b bf 02 23 6f 3d
       0.17107692 0.5739251 -0.6067476 0.058382995
000170 12 de 72 bf 06 b2 b4 3e dc 52 56 3f 85 39 0e bf
       -0.948701 0.3529207 0.83720183 -0.5555652
000180 9d 16 19 3f 03 30 51 3d 21 fa 16 bf d9 cb 12 3f
       0.5980013 0.05107118 -0.58975416 0.57342297
